Project/models/model_city_1_test.bin (torch, 275597 bytes, 6 tensors)

linear1.weight f4 [256, 4]
000000 75 cc f3 bf e0 42 3a bf e2 9a 8d be 08 38 1c be
       -1.904677 -0.72758293 -0.2765723 -0.15255749
000010 0b 63 e8 bf 26 59 31 c0 c9 8c 36 be f9 dd af bf
       -1.8155226 -2.7710662 -0.17827143 -1.3739616
000020 98 2b b7 be 05 8e 08 bf 0c 2e a4 be a8 5e ba bd
       -0.35775447 -0.53341705 -0.3206638 -0.091000855
000030 ea 18 c4 bd da 1b 81 bf ad bf f9 be 7f fd d9 be
       -0.095750645 -1.0086625 -0.4877905 -0.42576215
000040 d6 3c b7 be 6a a0 c2 bd ac 8c 43 be b0 a4 1e be
       -0.35788602 -0.09503253 -0.19096631 -0.15492511
000050 6a 38 a8 be 16 94 03 bf 4f 1c cd be 2c b3 5f be
       -0.3285554 -0.51397836 -0.4006066 -0.21845692
000060 c2 a2 90 3e c3 b1 c3 bf bf d5 50 bf 27 ca 21 bf
       0.28249174 -1.5288624 -0.8157615 -0.63199085
000070 b2 f5 70 3e 8f 67 94 bf a0 7b 36 bf 0b 0d 80 be
       0.23531225 -1.1594104 -0.71282387 -0.2500995
000080 d0 47 a0 bf 84 24 cb bf 32 fc 0c be 6e f9 91 bf
       -1.2521915 -1.5870519 -0.1376808 -1.1404245
000090 17 9c b8 bf e0 9e bb bf cb 66 10 bf f0 a1 4c bf
       -1.4422635 -1.465786 -0.5640685 -0.79934597
0000a0 e3 a7 1c bf e4 c9 6b bf 9e ab 00 bf 52 94 65 bf
       -0.61193675 -0.92104936 -0.5026187 -0.89679444
0000b0 10 ed f4 be ec 43 18 bf f4 3b 48 be a8 17 89 3d
       -0.47837114 -0.5947864 -0.1955412 0.06693965
0000c0 b9 84 42 bd 96 b9 ad be 20 40 f7 be 90 60 b0 bd
       -0.047489855 -0.33930653 -0.4829111 -0.08612168
0000d0 3c 93 4f bf 82 14 f8 be 55 a8 8c bf 9c d9 d0 be
       -0.81084037 -0.48453146 -1.0988871 -0.40791023
0000e0 99 71 1d bf 27 81 1a bf e9 a2 35 bf 69 39 af be
       -0.6150146 -0.6035332 -0.70951706 -0.34223488
0000f0 68 af d4 be 54 10 12 bf f1 12 03 bf 5e 8e 03 bf
       -0.41540074 -0.57056165 -0.5120078 -0.5138911
000100 e2 3f 82 bf 8e b5 d1 bd 61 bc 85 be 2d 31 b5 be
       -1.0175745 -0.10239707 -0.26120284 -0.3538908
000110 b4 1e 7c be 55 58 82 bf 4e e4 b9 be 92 4b d4 be
       -0.24621087 -1.0183207 -0.36306995 -0.41463906
000120 7f c2 2f 3e c6 e7 07 c0 c0 b7 98 bf f6 29 0b c0
       0.17164038 -2.1235213 -1.1931076 -2.174436
000130 4e ee a4 bf 54 2a d3 be aa cf dd be 73 2f 03 bf
       -1.2885225 -0.4124323 -0.43322498 -0.51244277
000140 87 f0 32 3d 3c 42 93 be 08 23 91 bf 6a 5c 9a be
       0.043686416 -0.2876147 -1.1338816 -0.3014863
000150 a0 38 84 be 6a 83 cf be db f9 b9 bd 2d dc 0a 3b
       -0.2582445 -0.40529948 -0.09080859 0.0021188364
000160 dd 41 48 bf e4 17 24 bf 14 90 3a 3e b5 9e d3 bf
       -0.782255 -0.64098954 0.18219024 -1.6532809
000170 c0 a5 f3 be 14 6d 01 c0 7f 4e 0c c0 74 92 9b bf
       -0.47587395 -2.0222826 -2.192291 -1.2154069
000180 96 ab e7 3e 64 dd 5b bf 2e f7 ae 3f 49 c3 0d c0
       0.45248097 -0.8588469 1.3669183 -2.2150443
000190 e0 a8 f6 be 40 e9 48 bf bb 8a 87 be f8 22 83 3d
       -0.48175716 -0.7848091 -0.2647303 0.06403154
0001a0 69 12 49 be 20 a4 f4 be ed cd 32 bf 00 ce bf 3b
       -0.19635929 -0.47781467 -0.6984547 0.0058534145
0001b0 0f e2 28 bf 9f 55 58 bf 72 3e 55 be 63 6f e0 be
       -0.6596994 -0.8450565 -0.20824602 -0.4383498
0001c0 0e 8a d9 be be f2 b5 be a2 c6 9e be 24 1b 3c be
       -0.4248814 -0.3553676 -0.3101092 -0.18369728
0001d0 cb 78 9a 3d 63 9b bc bf 4f 86 f0 be 89 a0 9e bf
       0.07542571 -1.473492 -0.4697747 -1.2392741
0001e0 26 ac 4e be 65 92 3a bf 9a ca 8c bf 28 01 cf be
       -0.20182857 -0.7287963 -1.0999329 -0.4043057
0001f0 20 89 3c 3d b4 7f aa be 00 0e 8e bb e4 8c c6 be
       0.04602921 -0.33300555 -0.004335165 -0.38779366
000200 2e 3b e5 be e8 4e 94 be 68 3f 4a be 50 73 95 3d
       -0.44771713 -0.2896645 -0.1975075 0.07297385
000210 b9 56 38 c0 32 e9 2c c0 8a 36 fa be 00 39 e8 be
       -2.8802931 -2.701733 -0.48869735 -0.45355988
000220 70 38 58 bf 5e 54 13 bf f4 83 e3 be 3e 4d a4 be
       -0.84461117 -0.5755061 -0.4443661 -0.3209018
000230 e0 f8 41 be 59 b6 9d be c1 6d 9c bf 11 aa 1b bf
       -0.18942595 -0.30803183 -1.2220994 -0.60806376
000240 40 79 2b bd 5e 8b 95 be a0 e0 12 bd e2 a8 eb be
       -0.04186368 -0.2920789 -0.03585875 -0.46027285
000250 cf 56 d0 bf 89 de bd bf 39 cb c0 be 69 86 12 bf
       -1.6276492 -1.4833537 -0.37655047 -0.57236344
000260 81 2c 16 bf 30 de ee be 0b a4 b0 bf 64 1c 71 bf
       -0.5866166 -0.4665389 -1.3800062 -0.94183946
000270 4f a8 5a bf 28 07 c3 bd fa 74 fc be e1 4b 6f bf
       -0.8541307 -0.09522849 -0.49307996 -0.9347516
000280 40 2e 9e bf a4 d8 c4 bf 0e 5d 0f bf 82 8b c4 be
       -1.2357864 -1.5378613 -0.56001365 -0.38387686
000290 ef 7f 13 3c f4 f3 69 bf 88 27 57 bf 82 64 fe be
       0.00900267 -0.9138787 -0.84044695 -0.49686056
0002a0 2c 5b 24 be 0a 4a c2 be 58 e1 81 be 64 5c 69 be
       -0.16050404 -0.37947112 -0.25367236 -0.2278915
0002b0 94 71 bd be 5e 62 38 be 02 14 26 bf cd 66 27 bf
       -0.37000716 -0.18006274 -0.6487428 -0.65391237
0002c0 3e 0b 45 be 43 b3 5f bf d4 20 02 bf fc 37 9b be
       -0.1924257 -0.87382907 -0.5083134 -0.3031615
0002d0 8f 8c 4d bf ae f2 ac bf ac 4f bb be 33 38 48 bf
       -0.802926 -1.351156 -0.36584222 -0.78210753
0002e0 4d cd 9c bd cd 96 80 bf 55 63 63 bf a0 d3 83 bf
       -0.076563455 -1.0046021 -0.88823444 -1.0298958
0002f0 15 33 cc be ae c2 8f be ff f5 8e be 30 b0 1e be
       -0.39882722 -0.28078216 -0.27922055 -0.15496898
000300 04 1b 20 bf 56 46 e6 bf 51 b9 35 c0 90 6c df bf
       -0.6254122 -1.7990215 -2.8394358 -1.7455006
000310 11 17 9d bf 0c 41 c5 bf 64 b5 f1 bf 1e 9f b5 bf
       -1.2272664 -1.5410476 -1.8883481 -1.4189184
000320 5f 25 af c0 88 de 19 c0 90 a9 87 40 36 40 28 c0
       -5.473312 -2.4042072 4.2394485 -2.6289191
000330 b9 22 02 c0 07 b5 2d c0 0e c7 f2 bf 9e 67 f0 be
       -2.0333693 -2.714174 -1.8966997 -0.46954054
000340 26 de 9b bf 78 c2 85 be da 48 b7 be 18 68 04 bf
       -1.2177169 -0.2612493 -0.3579777 -0.51721334
000350 10 d5 41 bf 9e 6d c3 be b3 6e 06 bf 4e 2a a2 be
       -0.7571573 -0.3816957 -0.52512664 -0.316729
000360 d5 3c 0c bf 52 d0 08 bf 5c 95 2f bf 60 41 5a bf
       -0.5478032 -0.5344287 -0.6858728 -0.85256004
000370 ca 9b 13 bf 22 8c 0a 3f 90 8b 9a bf 6e 9a 4a bf
       -0.5765959 0.54120076 -1.2073841 -0.7914189
000380 38 97 05 bd 3a 3e fd be be 6b b0 be 80 8a 05 be
       -0.032614917 -0.49461538 -0.344572 -0.13041115
000390 24 83 3a bf 12 d9 c0 be 24 a8 a5 bf a8 5b 63 bf
       -0.72856355 -0.37665612 -1.2941937 -0.8881173
0003a0 6d b0 14 bf 59 3f 99 bd 15 1d df be 3d 0d 64 bf
       -0.58081704 -0.07482786 -0.43576875 -0.890827
0003b0 40 56 94 bc 6e f8 d9 be 26 86 a6 be 34 45 0d be
       -0.018107533 -0.4257235 -0.32524222 -0.1379593
0003c0 17 d8 30 bf 68 b7 99 be 6a 59 b9 be 4a 36 8c bf
       -0.69079727 -0.3002274 -0.3620103 -1.0954068
0003d0 d0 02 8e bf 6f 34 49 bf 12 42 bb be 1b 70 2b bf
       -1.1094608 -0.7859563 -0.36573845 -0.66967934
0003e0 e6 f2 db 3e c6 79 02 40 17 19 ca c0 8f d1 11 40
       0.42958754 2.0386825 -6.3155627 2.2784154
0003f0 00 13 9d be a2 47 99 be ac b3 a0 be 24 54 73 be
       -0.30678558 -0.29937464 -0.3138708 -0.23762566

linear1.bias f4 [256]
000000 a3 b4 6a be f1 26 cf c0 95 f8 2b bf a6 b4 97 bf
       -0.2292047 -6.4735036 -0.6717618 -1.1852005
000010 d9 6f 59 bf c9 d0 71 bf e4 14 38 c0 5a 83 1a c0
       -0.8493629 -0.94459206 -2.876275 -2.414267
000020 fa d3 59 c1 39 6a 4f c1 b9 09 f6 be 25 64 2c bf
       -13.614252 -12.963433 -0.48054293 -0.6734031
000030 a3 3b 4b bf 5b cf 75 bf fa 83 9e be 17 7e 26 bf
       -0.79387873 -0.96019524 -0.30960065 -0.6503615
000040 0e e1 60 bf 95 19 50 bf ce 6d 3c c0 9a 5e f8 bf
       -0.87843406 -0.81289035 -2.944202 -1.940387
000050 60 78 11 bf 82 d0 6f bf f1 d5 99 c0 50 d2 07 c0
       -0.568243 -0.9367753 -4.807366 -2.1222115
000060 5d 1c fd c0 64 4f 0f bf c8 f2 10 bf c3 ff bb bf
       -7.9097123 -0.55980515 -0.56620455 -1.4687427
000070 dc 78 fa be d6 44 38 c0 85 15 dc bf 87 6e 34 bf
       -0.48920333 -2.8792014 -1.7194067 -0.7048115
000080 b2 49 4b bf 0d c7 5c c0 73 fc 1e bf a6 7d 98 bf
       -0.79409325 -3.449649 -0.62103957 -1.1913345
000090 d5 c9 34 bf 24 03 5e c1 59 52 7d bf 24 50 98 bf
       -0.7062047 -13.875767 -0.9895378 -1.1899457
0000a0 7b 0f 01 c0 54 4c 3f c0 47 0c 04 bf 7c f7 75 bf
       -2.0165699 -2.9890337 -0.51581234 -0.96080756
0000b0 71 b3 7f bf 66 13 af bf f5 e5 23 c0 d0 41 25 bf
       -0.9988318 -1.3677795 -2.5609105 -0.64553547
0000c0 4e 8f 64 c0 1d ce d5 bf cb b3 b3 40 0e b0 13 c0
       -3.5712466 -1.6703526 5.6156974 -2.3076205
0000d0 39 16 c7 bf 6a 23 6a bf 35 41 e4 bf a6 04 ac c0
       -1.5553657 -0.9146029 -1.78324 -5.3755674
0000e0 1c 59 92 bf 12 92 9f bf 22 f7 0f bf 3a 6f 40 bf
       -1.1433444 -1.2466452 -0.5623647 -0.7516972
0000f0 3d 0f 11 bf 83 a2 f2 bf 58 89 1f c1 40 b3 2d be
       -0.56663877 -1.8955845 -9.971031 -0.1696291
000100 a8 8c 49 c0 fc 80 25 c1 c9 bf 16 bf b8 e3 38 bf
       -3.14921 -10.34399 -0.5888639 -0.7222247
000110 a6 2d 7a bf 45 ec 7c bf 7e 50 b3 be 3a c9 15 c1
       -0.97725904 -0.9879802 -0.35022348 -9.361628
000120 ff d4 a4 be 19 b7 a7 c0 ca e9 0e c0 2a d6 88 bf
       -0.32193753 -5.241101 -2.2330194 -1.0690358
000130 d2 ce 9a bf 63 1d 53 c0 34 e6 69 bf df 63 32 c0
       -1.2094367 -3.2986686 -0.9136689 -2.7873456
000140 34 ba dd be 54 11 84 bf 20 11 6b c1 a5 4a b6 be
       -0.43306124 -1.0317788 -14.691681 -0.35603824
000150 24 9e f3 be ba 6a 74 bf 4a 54 a1 c0 b2 1f 61 bf
       -0.4758159 -0.9547535 -5.041539 -0.8793899
000160 b9 ed 79 bf c7 9a 6f bf 01 ff a2 bf 54 75 c1 be
       -0.9762836 -0.93595546 -1.2734071 -0.37784827
000170 3d 9a c2 be d6 6e 38 bf 58 ca c9 be 5b fb 47 c0
       -0.380083 -0.7204412 -0.3941219 -3.1247165
000180 46 5e d4 be 2d 63 d0 bf 3f 5d 5e bf fe 96 c2 bf
       -0.41478175 -1.6280266 -0.8686103 -1.5202329
000190 af 81 0b bf c0 c0 de bf 8f 28 84 bf 47 41 5b c1
       -0.54494756 -1.7402573 -1.0324878 -13.703437
0001a0 52 13 04 bf 10 de 18 c1 43 11 7e be e1 c2 89 bf
       -0.5159198 -9.5542145 -0.24811272 -1.0762597
0001b0 23 f1 c5 bf 77 74 22 c1 a0 e2 24 bf ea 92 8a c0
       -1.5464214 -10.153434 -0.644083 -4.330434
0001c0 03 3f 44 bf 70 16 5f c0 33 18 16 bf f2 20 20 bf
       -0.7665865 -3.4857445 -0.58630675 -0.6255027
0001d0 33 9f ba be 1a 30 63 bf a0 83 62 bf d9 bc cf bf
       -0.36449584 -0.8874527 -0.88482094 -1.6229507
0001e0 d3 bd fd bf ad 2d 22 bf 6d 93 39 c0 16 fd a6 c0
       -1.9823555 -0.63350946 -2.8996232 -5.2183943
0001f0 f3 e2 7a bf 51 d4 4e c0 40 c8 45 be 9c c5 10 c0
       -0.9800255 -3.2317088 -0.1931467 -2.262061
000200 1e d3 72 bf c8 8d 17 c1 81 2f de bf 39 e5 83 be
       -0.9485339 -9.472115 -1.7358247 -0.2576082
000210 fd 5f c9 bf c0 6f 30 c0 66 88 19 bf a4 4f 53 41
       -1.5732418 -2.7568207 -0.5997375 13.2069435
000220 f9 76 2a c0 9c 9b 2a be 3a 4a 1d c0 6b 82 94 c1
       -2.6635115 -0.16660923 -2.4576554 -18.56368
000230 5e ef d1 be 4e 5a ba be 92 be f3 be 4b be 56 bf
       -0.41002935 -0.36397022 -0.4760633 -0.83884114
000240 5c e0 bc be e5 88 da bf 2b 04 5b bf 76 6c 61 bf
       -0.36889923 -1.7073027 -0.85553235 -0.88056123
000250 1c c1 a7 bf b6 ac 19 c0 a3 25 41 bf 4d 65 f2 be
       -1.3105807 -2.4011664 -0.75448054 -0.4734291
000260 63 89 c3 c0 21 33 87 be ae 6a c8 c0 97 34 02 bf
       -6.110521 -0.26406196 -6.2630224 -0.50861496
000270 a1 71 42 bf 33 39 f5 bf 8a b5 94 be 06 b0 bb bf
       -0.75954634 -1.9158081 -0.29044753 -1.4663093
000280 d0 07 eb be 66 c6 80 bf f4 d4 a3 bf 12 f1 5c c0
       -0.45904398 -1.0060546 -1.2799363 -3.4522138
000290 03 a4 22 bf 91 b1 16 c0 f3 cf bd bf 9e 67 a7 bf
       -0.6353151 -2.3545878 -1.4829086 -1.3078496
0002a0 e9 b7 c9 bf 1f 5f ef bf 7b 68 a6 c0 af 41 e0 bf
       -1.575925 -1.8700904 -5.200254 -1.7520045
0002b0 c5 ae be bf e6 87 b9 bf 5c 67 84 bf 0d b7 af c0
       -1.4897085 -1.4494598 -1.0344043 -5.491095
0002c0 55 57 8b bf 2b cf 46 bf a3 cb 85 bf 3e 6b 46 c0
       -1.0886027 -0.77659863 -1.045277 -3.1002955
0002d0 fa e2 eb bf 47 63 11 bf 60 30 6e bf 5c b9 ff be
       -1.8428643 -0.5679211 -0.93042564 -0.49946105
0002e0 52 b0 cd c0 ac 6f b1 c1 e6 26 74 c0 64 f2 52 bf
       -6.4277735 -22.179527 -3.8148742 -0.8240111
0002f0 42 69 85 bf 3f f1 27 bf 52 ce 2d c0 e9 35 97 bf
       -1.0422747 -0.6560249 -2.7157178 -1.1813327
000300 54 d2 78 bf d2 0b 97 bf 37 f4 c5 bf 9a 4e 2f c0
       -0.97195935 -1.1800482 -1.5465153 -2.7391725
000310 2f 16 96 bf d1 ca 6c bf 59 52 c7 c0 f7 05 c6 bf
       -1.172552 -0.92496973 -6.228802 -1.547057
000320 e0 7c 9d be 71 49 40 c0 46 b7 37 bf 0f 7e 63 bf
       -0.30759335 -3.0044825 -0.7176403 -0.88864225
000330 38 f0 88 bf f8 a8 0a bf c6 0e b2 c0 9f e3 72 bf
       -1.0698309 -0.54164076 -5.5643034 -0.9487857
000340 b3 91 b5 bf c0 fe ec bd a5 ec c7 c0 7b c2 14 c1
       -1.4185089 -0.11572027 -6.2476373 -9.297481
000350 fc 5c 7e bf 30 7b 8c be fc 28 f5 bf 17 6a 82 bf
       -0.9936063 -0.27437735 -1.9153132 -1.0188626
000360 f8 60 05 c0 5a 2b 88 bf 68 6e 17 bf 44 bb a7 be
       -2.0840435 -1.063823 -0.5915284 -0.3276006
000370 7a 88 ce bf 74 23 33 c1 60 ce 86 c0 02 6d 5f bf
       -1.6135399 -11.196156 -4.2126923 -0.8727571
000380 6a 9f 10 bf 4e 9b 30 c1 bd 1b e7 be ee 64 bd c1
       -0.56493247 -11.037916 -0.4513835 -23.674282
000390 c9 37 ab bf c8 78 50 be 63 38 d8 c0 28 0a 39 bf
       -1.3376399 -0.20358574 -6.756883 -0.7228112
0003a0 f4 e6 1c c1 3e 33 fa c0 f6 4d 73 bf 02 25 76 c1
       -9.806385 -7.818755 -0.95040834 -15.384035
0003b0 eb a0 0c bf 2d 2e 01 bf 7b f9 4a bf 68 54 20 c0
       -0.5493304 -0.50461084 -0.79286927 -2.5051517
0003c0 6b 73 30 c0 a8 e7 62 be 4e 61 1c c0 36 b8 83 c0
       -2.7570446 -0.22158682 -2.443439 -4.1162367
0003d0 55 c7 94 bf 55 33 72 bf 3d a6 a5 c0 97 5d 8d bf
       -1.1623331 -0.94609576 -5.1765428 -1.1044186
0003e0 f5 a8 55 bf 0a 0c 19 c0 18 54 10 c0 df c8 8a bf
       -0.8346093 -2.3913598 -2.2551327 -1.0842551
0003f0 1c b8 85 bf 3e d3 ae bf 49 bc 52 bf d8 06 1a be
       -1.0446811 -1.3658216 -0.8231855 -0.15041673

linear2.weight f4 [256, 256]
000000 2e a1 52 bd 90 1d 91 3b 04 46 ce 3c a9 c7 04 bf
       -0.051423244 0.004428573 0.02517987 -0.5186716
000010 26 87 5a 3d f2 d5 20 3d eb 4d 01 bf 10 55 35 3d
       0.053351544 0.039266534 -0.5050952 0.044270575
000020 a0 c1 7d 3c e0 28 ff bb 69 b6 09 bf 60 ef fd be
       0.015488058 -0.007786855 -0.5379396 -0.4959669
000030 e8 1f 3a bd 54 f7 ae 3c c8 2c 0e bf 74 af e7 be
       -0.045440584 0.02135817 -0.5553708 -0.45251048
000040 00 6d fc 3c 28 96 2d bc 54 b8 c5 bc 7c 40 81 bc
       0.030813694 -0.010594882 -0.024135746 -0.015777819
000050 e4 8b a8 3c 71 52 11 bf e8 d4 6d bd 9e 2e 88 3f
       0.020574518 -0.5676642 -0.05806437 1.0639226
000060 2d e4 cb bf ac ef ef 3c 90 ae 0a 3c 1d 37 05 bf
       -1.5929009 0.02928909 0.0084644705 -0.5203722
000070 66 e0 22 bd 4a 15 01 bd 87 ec 02 bf a8 94 7b bc
       -0.039764784 -0.031514443 -0.5114216 -0.015355267
000080 7a 27 6d bd 34 74 92 bc a3 a9 fc be 54 f5 8e 3c
       -0.057898976 -0.017877676 -0.49348173 0.017450966
000090 dc 24 79 bd 5a f6 68 bd a8 7a 2b 3c 40 c4 44 3d
       -0.060826167 -0.056875564 0.010466255 0.04803872
0000a0 4a 7c ea be 65 5c 0b bf a0 ca 35 3c 78 48 aa 3c
       -0.4579795 -0.5443786 0.011095673 0.020786509
0000b0 33 03 0e bf 49 40 00 bf 98 bd 07 bf d2 9e 55 3d
       -0.5547363 -0.5009809 -0.5302367 0.052153416
0000c0 a2 77 6a bd 20 7c 16 bd 7c 74 c6 bf 2e 5d 04 3d
       -0.057242997 -0.03673947 -1.5504298 0.032315426
0000d0 fc 4e 74 3d 99 9f 0e bf 2f 3d 01 bf ac 28 cd bf
       0.059645638 -0.55712277 -0.50483984 -1.6028037
0000e0 3a 04 63 bd c6 2e 45 3d 6d 58 0d bf 76 34 2b bd
       -0.055423953 0.04814031 -0.5521305 -0.041798078
0000f0 20 23 4c 3d 68 70 91 3c 72 3e b5 bf b0 1d 75 3d
       0.049838185 0.017753795 -1.4159682 0.059842765
000100 5f 67 10 bf e2 2a 54 3d 07 30 f4 be d8 5e 08 bd
       -0.5640773 0.05179871 -0.47692892 -0.033293575
000110 94 17 f2 be 48 9b 36 3d 14 f3 fb be 72 dc 00 bd
       -0.47283614 0.04458168 -0.4920889 -0.031460233
000120 61 ad 12 bf f0 5f 35 bc 40 83 7e 3d dd d9 12 bf
       -0.57295805 -0.011070237 0.06213689 -0.57363683
000130 a7 51 ed be 76 be 6e 3d 10 ae 0b bc e8 02 b7 3c
       -0.46351358 0.058287106 -0.008525386 0.022340253
000140 40 f6 19 3b 56 6c 31 3d ea 16 03 c0 a7 18 0a bf
       0.0023492724 0.043316208 -2.0482736 -0.53943866
000150 f6 66 42 3d 4c 7f 2f 3d d8 f0 29 c0 34 18 0b bd
       0.047461472 0.04284601 -2.655325 -0.03395863
000160 16 02 44 bd e0 8f 52 3c 02 15 13 bd f8 56 10 bf
       -0.04785355 0.012851685 -0.035908706 -0.56382704
000170 f8 3d cf 3c c1 74 f8 be 2c 06 ef be 82 1f 01 bf
       0.025298104 -0.48526576 -0.46684396 -0.504387
000180 1f 99 f2 be 28 5c 0b bc 04 d2 bb bc b0 c2 03 bf
       -0.47382447 -0.0085058585 -0.022927292 -0.51468945
000190 88 d4 f6 be 22 7e 02 bf 6c 08 09 bf 2e b2 1f bd
       -0.48209023 -0.50973713 -0.53528476 -0.038988285
0001a0 40 15 9a 3c 14 e3 87 3c 02 8f 5d 3d 24 6e aa bc
       0.01880896 0.016587771 0.05409146 -0.020804472
0001b0 28 53 7a bd 64 3c ac 3c 50 6b 39 3c ac a6 f5 3c
       -0.06111446 0.02102489 0.011317089 0.029986702
0001c0 dc 33 e5 bc d8 a6 30 bc 1a 91 6e 3d cf 64 f8 be
       -0.02797883 -0.010781966 0.05824385 -0.4851441
0001d0 41 84 05 bf f7 06 f2 be e0 22 27 3d dc 5b ac bc
       -0.5215493 -0.4727094 0.040804744 -0.021039896
0001e0 b8 93 72 bc d8 61 13 bc 84 3d 58 3d 48 bb 02 bf
       -0.014805727 -0.008995496 0.05279304 -0.5106702
0001f0 e8 ea 7e 3d fa 60 10 bf ad 2c 03 bf 1a b8 43 3d
       0.062235743 -0.56397974 -0.51240045 0.047782995
000200 32 b0 14 3d f3 91 cd bf ee ce 10 bf f3 73 05 bf
       0.036300845 -1.6060165 -0.5656575 -0.5213005
000210 c9 eb f2 be 20 48 01 3d e1 a6 00 bf 73 ad cd bf
       -0.47445515 0.031562924 -0.50254637 -1.6068558
000220 c3 f6 e6 be 67 da ef be 5e 14 c5 bf ab f2 f9 bf
       -0.4511014 -0.46846315 -1.539684 -1.9527181
000230 4f 53 09 bf 10 c3 c7 3c e0 8c 10 bf 8c 9b f7 3c
       -0.53642744 0.024385005 -0.5646496 0.030225538
000240 3d b8 0d bf d4 78 ff be ac ca c0 bc af bb 0d bf
       -0.5535925 -0.49896872 -0.023534141 -0.5536451
000250 d8 2b ae bc a9 54 ea be 26 39 14 bd 20 1a e8 3c
       -0.02126114 -0.45767716 -0.036187313 0.02833277
000260 ce 3b 32 bd 30 57 08 bd 16 81 04 bf af fe 08 bf
       -0.043514065 -0.033286273 -0.5175947 -0.53513616
000270 d3 cd 0b bf 28 9c f6 3c ff 9b f5 be 63 b1 e6 be
       -0.5461094 0.030103758 -0.47970578 -0.4505721
000280 aa 9d 53 3d 75 35 f8 be 10 03 04 bc c7 2e 12 bf
       0.051664032 -0.48478284 -0.008057371 -0.57102627
000290 80 25 5f bd 80 c7 62 ba 4c 03 b5 bc b0 a3 d0 bb
       -0.054479122 -0.00086509436 -0.022096299 -0.0063671693
0002a0 70 2a 90 bb 5a 7c 46 bd 08 ae 3b bc 38 4f ff bc
       -0.00439959 -0.048458435 -0.0114550665 -0.031165704
0002b0 7a 15 f9 be a0 04 e8 be 20 c0 1e 3c f4 96 90 bc
       -0.48649198 -0.4531603 0.009689361 -0.017650105
0002c0 98 a2 a0 3c 9b 62 ef be 00 5b f8 3a 97 29 e9 be
       0.01960878 -0.46754918 0.0018948019 -0.45539543
0002d0 eb a9 f4 be 01 e3 03 bf 6b 34 fe be b3 42 01 bf
       -0.47785887 -0.51518255 -0.49649367 -0.504924
0002e0 40 40 72 3b 82 ac e4 bf 58 fe 7f bd 59 e1 06 bf
       0.0036964566 -1.7865145 -0.06249842 -0.52687603
0002f0 ef 4d 08 bf 5e b1 10 bd a9 ab 00 bf aa 76 ed be
       -0.5324392 -0.0353254 -0.5026193 -0.46379596
000300 45 72 07 bf db b7 04 bf 71 22 03 bf b5 b1 f6 be
       -0.52908736 -0.5184304 -0.5122443 -0.48182455
000310 f9 5c fd be 60 49 a7 3c 7c 8c f6 bf 85 b1 f9 be
       -0.49484995 0.02042073 -1.9261622 -0.4876825
000320 e5 c4 e6 be ec 5c f5 bc 8a 9f 06 bf 08 1e 53 3c
       -0.45072094 -0.029951535 -0.5258719 0.012885578
000330 32 4a 01 bf 15 e3 ec be 4d 50 08 c0 00 cd dc bb
       -0.5050384 -0.46267 -2.1299012 -0.006738305
000340 d0 17 05 bf 20 8e b8 3c 24 11 00 bf 6a d7 bc bf
       -0.5198946 0.022528708 -0.50026155 -1.4753239
000350 1c b9 03 bd 23 9b 02 bf 78 1d 63 3d 21 fe f9 be
       -0.032158956 -0.5101797 0.055448025 -0.48826697
000360 30 af 94 bc 80 6f ab 3a 14 89 db 3c 42 c0 36 3d
       -0.018149942 0.0013079494 0.026798762 0.044616945
000370 e8 8d 07 3d 6c 7d 62 bf 6f c3 c4 bf b8 49 7d bc
       0.033094317 -0.8847263 -1.5372142 -0.01545947
000380 3c 62 6e bd f5 77 11 bf b3 74 0a bf 45 26 9f bf
       -0.058199152 -0.56823665 -0.5408432 -1.2433554
000390 4b 0d 07 bf c6 a1 52 bd 24 a7 8f 3f 34 ce a2 bc
       -0.5275466 -0.05142381 1.1222882 -0.019873716
0003a0 20 06 80 bc 3c 8a 11 bf 92 7b 17 bd 14 0c 45 3d
       -0.01562792 -0.56851554 -0.03698308 0.04810722
0003b0 a6 97 65 3d 94 c3 30 bd d2 6c 17 3d 00 81 97 3b
       0.056052826 -0.043155268 0.036969014 0.0046235323
0003c0 7d 2f 01 bf 46 dd 7c bd ab fd fd be 94 33 a9 bc
       -0.50463086 -0.06173446 -0.49607596 -0.020654477
0003d0 ad d1 f8 be 10 30 0c bf c6 28 73 bd c0 8d 96 3c
       -0.4859747 -0.5476084 -0.059365056 0.018378139
0003e0 74 80 b7 3c ec 10 f1 3c d9 be 0a bf 7d 43 09 bf
       0.022400118 0.029427014 -0.5419746 -0.53618604
0003f0 24 bd 96 bc b0 25 03 bf 5f 9d ed be 68 d0 73 3c
       -0.018400736 -0.5122938 -0.46409127 0.014881231

linear2.bias f4 [256]
000000 67 2c 1d c0 0f e3 5f c0 ba 8c e1 bf 32 0f b8 bf
       -2.455835 -3.4982336 -1.7621071 -1.4379637
000010 55 c5 10 bf 60 bf 24 c0 b4 36 0c c0 56 4d ea bf
       -0.56551105 -2.5741806 -2.1908388 -1.8304851
000020 a3 93 21 bf 83 98 11 40 5b df 11 bf 5d 86 2e c0
       -0.631159 2.2749336 -0.5698144 -2.726951
000030 2c d2 06 bf f6 ff 19 c0 12 da 0f c0 e1 58 1a bf
       -0.52664447 -2.4062476 -2.247685 -0.6029187
000040 41 95 03 c1 b3 56 29 bf 68 32 e0 bf ff 1f 2c c0
       -8.223939 -0.6614792 -1.7515383 -2.689453
000050 20 d5 0e c0 4d a7 0d c0 54 db 10 bf 2b 50 0f c1
       -2.231758 -2.2133362 -0.5658467 -8.957072
000060 61 8f 14 bf e3 75 20 c0 99 6d 92 c0 b0 e6 0f bf
       -0.5803128 -2.5071952 -4.5758786 -0.56211376
000070 79 9d 27 c0 82 b1 8b c0 6a 24 21 c0 32 8b 2b c0
       -2.6189864 -4.3654184 -2.5178475 -2.6803708
000080 86 8c 09 bf df a9 06 c0 18 f0 0a c0 63 0f fb bf
       -0.53730047 -2.104118 -2.1709042 -1.9614071
000090 c6 fb 25 bf cf a4 f5 bf 91 00 23 c0 85 9a fe bf
       -0.648373 -1.919092 -2.5469096 -1.9890906
0000a0 0b 28 07 c0 6f d1 0d bf 1a 2c e4 bf 0d 3f 0f bf
       -2.111819 -0.55397695 -1.7825959 -0.5595558
0000b0 1e 60 1a c0 64 83 07 c0 f9 ce 0e bf da d4 39 40
       -2.4121165 -2.1173944 -0.55784565 2.9036164
0000c0 22 20 01 c0 d2 4a 93 3f e1 e7 23 c0 12 5f 12 bf
       -2.0175862 1.1507208 -2.5610278 -0.57176316
0000d0 b7 e9 a2 bf db 54 7d c0 bc 29 1d bf 0c 6b 8d c1
       -1.2727574 -3.9583042 -0.61391807 -17.677269
0000e0 98 26 25 c0 ba ad 24 bf 1c e0 24 bf 1f 1f 65 bf
       -2.5804806 -0.64327586 -0.64404464 -0.8950061
0000f0 5f ca 09 c0 f0 d3 11 bf a4 37 04 c0 32 02 c9 bf
       -2.1529768 -0.56964016 -2.065896 -1.5703795
000100 58 28 23 c0 85 9f 08 c0 d1 e1 ce bf 08 39 59 c0
       -2.5493374 -2.1347363 -1.6162664 -3.394106
000110 0a 42 16 bf c5 59 0f c0 c9 db 10 c0 39 8f 0d bf
       -0.5869452 -2.239854 -2.2634146 -0.55296665
000120 6b f5 6c bf 2c f3 4a 41 4e 65 21 bf 45 eb 97 40
       -0.9256198 12.684368 -0.63045204 4.7474694
000130 8f d2 a8 c0 39 0c f0 40 f9 82 38 c0 16 a9 0e c0
       -5.275703 7.501492 -2.882994 -2.2290702
000140 27 ba 09 c0 05 f7 1e bf f5 d1 63 c0 74 b7 12 bf
       -2.1519868 -0.6209567 -3.5596898 -0.5731118
000150 72 13 1f bf 89 d0 ce bf 9a da 18 bf 4c 60 91 bf
       -0.62139046 -1.615739 -0.5970856 -1.1357512
000160 0a 0e a5 bf 45 13 af bf 89 91 21 bf 86 c6 7e bf
       -1.2894909 -1.3677756 -0.63112694 -0.9952167
000170 82 d7 09 c0 a6 bc 07 c0 97 1a d0 3f 86 46 f9 bf
       -2.1537786 -2.1208892 1.6258115 -1.9474647
000180 0d 2f a3 c1 d8 13 88 c0 b6 9e 2a c0 fd 9e 0f bf
       -20.397974 -4.2524223 -2.665937 -0.5610197
000190 4a ce 0c c0 87 ee 03 c0 9c 72 e7 c0 b3 f7 09 bf
       -2.200091 -2.0614336 -7.2327404 -0.53893584
0001a0 eb 0f 0e bf 40 3c 33 c0 ca 1e 27 bf f7 76 11 bf
       -0.5549304 -2.8005524 -0.65281355 -0.5682215
0001b0 46 a5 8a bf f8 a3 21 c0 d3 5a 92 bf f5 c4 06 c0
       -1.0831687 -2.5256329 -1.1433967 -2.1057713
0001c0 1e d5 89 41 c9 f1 51 bf c7 70 00 c0 f1 e4 07 c0
       17.229061 -0.8200956 -2.0068834 -2.1233485
0001d0 e8 74 a7 c0 b1 fd 0e bf 37 f8 88 c0 10 7c 20 c0
       -5.233021 -0.5585585 -4.2802997 -2.5075722
0001e0 d8 ac 4d c0 e9 ea 1f bf 80 55 bd bf 33 40 0a c0
       -3.2136745 -0.6246782 -1.4791718 -2.1601684
0001f0 cc dc 07 c0 16 79 cc c0 5d d3 74 c0 62 b9 10 c0
       -2.1228514 -6.389781 -3.8254006 -2.2613149
000200 43 0b 06 c0 4b 21 0c bf 67 28 0d c0 46 9a f3 bf
       -2.0944374 -0.547383 -2.205591 -1.9031456
000210 9b a4 87 c0 8b f1 c2 bb c5 e5 09 bf f5 c5 16 bf
       -4.2388434 -0.0059492043 -0.53866225 -0.5889581
000220 ad 0f 8f bf 26 29 10 c0 be cc a1 bf 0f 43 26 c0
       -1.1176659 -2.2525115 -1.2640607 -2.597843
000230 be a0 0f bf 08 a2 3f c0 ba 53 47 c1 24 5d 1b c0
       -0.5610465 -2.9942646 -12.457941 -2.4275599
000240 11 38 ca bf 5b 56 b3 c0 37 75 01 bf b5 ee 0e c0
       -1.579836 -5.6042914 -0.5056948 -2.2333195
000250 6d 6f 2d c0 17 bf 8c c1 b7 dc 60 41 3a 65 06 c0
       -2.709926 -17.593306 14.053885 -2.0999284
000260 a2 58 22 bf 57 b2 23 c0 11 3d ca c0 43 39 95 bf
       -0.6341649 -2.55776 -6.3199544 -1.16581
000270 89 7c 7c c0 05 0b ad c0 07 f4 0b c0 8b 8a c0 bf
       -3.945101 -5.407595 -2.1867692 -1.504228
000280 c0 6d 16 bf 60 6e e2 be bf 4b 0b bf 48 25 8a bf
       -0.58761215 -0.44224834 -0.54412454 -1.0792627
000290 1a 73 88 bf f1 6b d0 bf e1 e5 83 c0 9e ea 1a c1
       -1.0660126 -1.6282941 -4.1218114 -9.68228
0002a0 d8 87 14 bf 19 da aa 40 d8 a7 06 c0 7c f9 31 c0
       -0.5801978 5.3391232 -2.1039944 -2.7808523
0002b0 c6 17 37 c0 e6 e3 9f bf 88 19 19 c0 dd a5 14 c0
       -2.860826 -1.2491424 -2.3921833 -2.3226235
0002c0 27 be 15 c0 81 cd 21 bf 80 c5 8f bf 6a 48 02 c0
       -2.339731 -0.632042 -1.1232147 -2.0356698
0002d0 89 fa 12 bf b4 01 1d c0 37 7b e0 bf cb 76 4c c0
       -0.57413536 -2.453229 -1.7537602 -3.1947505
0002e0 62 79 fa bf 9a ac 1f bf 3f 7f 16 40 ec 00 68 c0
       -1.9568293 -0.62372744 2.3515165 -3.6250563
0002f0 e2 d6 17 bf 79 c7 90 c0 b9 f1 2d c0 7b 3a d5 3e
       -0.5931226 -4.5243497 -2.7178786 0.4164618
000300 24 03 8d c0 05 8d b9 bf 1c 52 dd bf ed d4 f7 bf
       -4.4066334 -1.4496161 -1.7290683 -1.9361855
000310 2a 91 45 c0 78 1f ae bf 54 5d 00 bf a0 e4 25 bf
       -3.086985 -1.3603354 -0.5014241 -0.6480198
000320 ae 17 2f 41 5f e1 12 bf 82 99 23 c0 5b 64 b8 bf
       10.943281 -0.5737514 -2.5562444 -1.4405626
000330 52 65 2b 40 f6 e9 cd bf 07 81 1c bf 7e 27 bc bf
       2.678059 -1.6087024 -0.6113438 -1.4699552
000340 ae 53 24 bf 54 db dd c0 95 74 ee bf 0a e1 93 c0
       -0.64190185 -6.9330235 -1.8629328 -4.6212206
000350 c6 9f 67 41 91 7a 0a c0 25 37 31 c0 63 1f 04 c0
       14.476507 -2.1637309 -2.7689908 -2.0644157
000360 6c f2 25 c0 24 84 a2 bf 16 f7 7d c0 dc 96 0c bf
       -2.5929213 -1.2696576 -3.968206 -0.54917693
000370 3a 8e bf bf 1d fe de bf 87 5e ab bf e4 1a 0a bf
       -1.4965279 -1.7421299 -1.3388222 -0.5394728
000380 d4 74 08 c0 1d 65 1c bf a5 cb b9 bf 51 cb 1b bf
       -2.1321306 -0.61091787 -1.4515272 -0.6085711
000390 f8 12 d1 40 cd 7f 14 bf 65 3d 0d c0 35 0a 4d c0
       6.5335655 -0.5800751 -2.2068722 -3.203748
0003a0 1b 39 5c c0 0a cf ba bf f7 61 34 c0 6e be 5d c0
       -3.4409854 -1.4594433 -2.8184793 -3.464748
0003b0 5d 00 f7 be 17 1a 04 c0 56 45 c4 be a2 3f f9 bf
       -0.48242465 -2.0640924 -0.3833415 -1.9472544
0003c0 0a 4d 10 c1 3d 02 09 c0 f7 54 0f c0 3c ed b5 bf
       -9.018808 -2.1407616 -2.2395608 -1.4213023
0003d0 08 a0 d5 c0 e1 b1 36 bf c1 db 09 c0 68 39 09 c0
       -6.675785 -0.7136517 -2.1540377 -2.1441288
0003e0 fd 66 0e c0 6e c9 9c c0 a6 3d 1d bf f0 ab 35 bf
       -2.225036 -4.8995886 -0.61422193 -0.7096548
0003f0 e9 d4 0e bf d8 82 a0 bf 61 af 4c c0 66 43 94 bf
       -0.55793625 -1.253993 -3.1982043 -1.1583068

linear3.weight f4 [4, 256]
000000 34 7e 0c bf 26 6a 6c 3f 24 71 9e be bf 09 49 bf
       -0.5488007 0.9234947 -0.30945694 -0.78530496
000010 2b f9 14 3f 07 3e a6 3e 90 49 7e bf 35 dd 13 bf
       0.581927 0.32469198 -0.99331 -0.5775941
000020 34 de 1d 3f cc d2 7f bf f9 bf 0c 3f be 6b 1c c0
       0.6166718 -0.99931026 0.5498043 -2.444076
000030 f8 38 fb bc 25 cd 24 be 77 0e ef 3f c8 76 1a 3f
       -0.030666813 -0.16093881 1.8676289 0.60337496
000040 80 6d 4d 40 22 8b 1c 3f 1f 30 ec be 1b 80 3d bf
       3.2098083 0.611498 -0.46130463 -0.740236
000050 b3 a0 e3 3e 70 50 83 3f a9 17 13 3f 50 68 08 3f
       0.4445854 1.0258923 0.5745798 0.5328417
000060 b7 56 0e 3f 49 b3 b2 3f 85 01 d5 c0 fb ee 0b 3f
       0.55601066 1.3960963 -6.6564355 0.5466153
000070 19 11 23 bf 35 49 2d c0 d2 9e 60 40 a7 a6 9c 3f
       -0.63697964 -2.7075932 3.5096936 1.2238358
000080 44 c5 25 3d a7 6b 87 3f 4d f1 81 bf b8 52 ae 3f
       0.04047133 1.0579728 -1.0151764 1.3618994
000090 75 19 0c 3f 79 cc 68 3f 2e d3 94 bf fc cd 69 bf
       0.54726344 0.90937 -1.1626947 -0.9132993
0000a0 a7 0f df 3e 1c b4 17 3f a1 7d 55 3f 17 1c 15 3f
       0.4356663 0.592592 0.8339482 0.58245987
0000b0 0d c6 ae 3f 1f 0f 69 bf 02 31 11 3f 45 fb ae 3f
       1.365419 -0.910387 0.56715405 1.3670431
0000c0 4a 82 8d bf 5f fd 49 41 37 45 9b 3f c3 40 0d bf
       -1.1055386 12.624358 1.2130498 -0.55176944
0000d0 07 57 3a be f5 1b 3e 41 e2 57 0e 3f 3b 81 fa c0
       -0.18197261 11.881825 0.5560285 -7.828275
0000e0 7f de 0a bf 4d 20 20 3f 31 4b 18 3f 5e 9c 33 bf
       -0.5424575 0.6254929 0.59489733 -0.7016047
0000f0 61 94 c7 bf c5 ad 0f 3f 78 03 7f 3f db bb 1f 3f
       -1.5592157 0.56124526 0.9961467 0.6239602
000100 d5 f1 f2 be c7 38 81 bf 98 57 5e bd e0 08 39 40
       -0.47450128 -1.0095452 -0.054282755 2.8911667
000110 03 30 0e 3f 36 38 23 bf d0 d6 38 be b4 0d 0f 3f
       0.5554201 -0.63757646 -0.18050694 0.55880284
000120 4e 41 df be 71 83 33 40 5b c7 15 3f d6 7a 36 c1
       -0.4360451 2.8048975 0.5850732 -11.404989
000130 68 c0 67 be a6 65 e5 40 56 13 a0 be a1 1f 70 bf
       -0.22631991 7.1686583 -0.31264752 -0.9379826
000140 6a 4c 80 bf 0d f0 11 3f 44 2a e1 be bf fe 0d 3f
       -1.002332 0.57006913 -0.4397756 0.55466837
000150 a8 e8 16 3f cc e1 02 3f 1f 42 20 3f 36 07 b3 bf
       0.58948755 0.5112579 0.6260089 -1.3986576
000160 51 8f cf bd 56 a8 2f bf 9d d7 1c 3f 2e 21 f6 3e
       -0.10134757 -0.68616235 0.612665 0.4807219
000170 75 37 83 bf 77 7a 8c 3f b7 bb 16 3f bd d2 df be
       -1.0251299 1.0974873 0.5888018 -0.43715468
000180 3e ca 1b bf 45 77 b9 bf 62 fb d2 bf e1 c8 13 3f
       -0.6085547 -1.4489523 -1.6482966 0.5772839
000190 56 0e f5 3e 91 1e 8f 3f 9c dd 2f 40 79 27 17 3f
       0.478625 1.1181203 2.747901 0.59044605
0001a0 99 12 0f 3f 6e b2 7e 3f eb cf 0b 3f f8 f2 24 3f
       0.5588775 0.9949101 0.5461413 0.6443324
0001b0 6b 6e 9d be f8 04 c5 3f af 38 45 3d a9 7c 88 3f
       -0.30748305 1.5392141 0.04814976 1.0663043
0001c0 93 0f a5 40 2c b4 bf bf 5d 1e 88 bf 7f b6 8b 3f
       5.158151 -1.4976859 -1.0634266 1.0915068
0001d0 7f 5b a3 3f 9d c4 1e 3f 97 0e f6 3f a9 cd 92 3f
       1.2762297 0.6201876 1.9223202 1.1469012
0001e0 e2 20 ad bf e8 21 10 3f d8 4f 96 be 20 fa 84 bf
       -1.352566 0.56301737 -0.2935779 -1.0388832
0001f0 a7 ba 88 3f 78 12 95 3f ec 50 39 be 9b b5 8f bf
       1.0681962 1.1646261 -0.18097275 -1.1227297
000200 ae 26 c6 3f 94 7b 12 3f 89 03 84 bf fb 90 5a 3f
       1.5480554 0.57219815 -1.0313579 0.8537747
000210 2b ac 6c 3f 1b c7 82 3f 1b 83 26 3f c0 1a 0a 3f
       0.9245021 1.0217012 0.650438 0.5394707
000220 de 0c 01 bf a2 2f 85 bf 03 6b e9 be 15 84 02 40
       -0.5041026 -1.0405161 -0.45589456 2.0393116
000230 26 ef 10 3f d6 ae b7 bf ae 6b 85 40 e8 e5 c2 3f
       0.5661491 -1.4350231 4.1693945 1.5226412
000240 47 73 0f bb dd 37 65 c0 e8 84 00 bf de 07 99 bd
       -0.002188878 -3.5815346 -0.502028 -0.07472204
000250 2a 7e df bf d3 1c 52 c0 b0 c3 e4 40 f5 93 8c 3f
       -1.7460377 -3.2830093 7.1488876 1.0982653
000260 4d b6 0c 3f ce a2 82 bf 74 47 21 40 18 c1 bf 3e
       0.5496567 -1.0205934 2.5199862 0.37452006
000270 d6 e7 14 3c 1b 09 c3 3f 98 69 80 bf 66 65 cb 3e
       0.009088477 1.5237154 -1.0032225 0.39725798
000280 9b 39 11 3f 68 ab 8e 40 5a 4e 10 3f d5 0c be be
       0.56728524 4.4584236 0.56369555 -0.37119165
000290 82 ce 58 3e 04 e8 00 bf 0e 8f d8 3f df af 2d 40
       0.21172526 -0.5035403 1.6918657 2.7138593
0002a0 76 18 12 3f 96 27 50 c1 e5 2c b2 3f f7 ed d9 bf
       0.57068574 -13.009665 1.3919951 -1.7025746
0002b0 a4 f6 87 bf 84 1e a4 be 65 31 ab 3f 0c 94 ef be
       -1.0622144 -0.32054532 1.3374449 -0.46792638
0002c0 c9 d8 ba 3f 41 ec 12 3f 4b 09 3f 3e 5b 8d 7b bf
       1.4597408 0.57391745 0.18655889 -0.98262566
0002d0 80 d9 14 3f 08 bf ba 3e 9c 56 a6 be aa 86 f1 3e
       0.5814438 0.3647387 -0.32487953 0.47173053
0002e0 04 d6 8c 3e 78 48 0b 3f 72 13 05 c0 41 e5 20 40
       0.2750703 0.54407454 -2.0793118 2.5139925
0002f0 89 e2 1c 3f 27 0d f7 bf 83 a0 65 bf 18 62 d6 3f
       0.61283165 -1.9300889 -0.89698046 1.6748686
000300 89 25 da c0 a3 c6 83 3d 30 6f 13 3f fa 9c 99 be
       -6.817082 0.06434371 0.57591534 -0.30002576
000310 4c 02 7d bf ad c6 0f be 4c d7 fb be 3c de 0b 3f
       -0.9883163 -0.14040633 -0.49187696 0.5463598
000320 be 88 82 3f 5a 21 18 3f 9f fd c7 3f fb d8 c1 be
       1.019798 0.5942589 1.5624274 -0.37860855
000330 17 b0 e3 40 87 46 50 bf 6c 10 0c 3f 54 d2 4b bc
       7.1152453 -0.81357616 0.5471256 -0.012440283
000340 87 f6 09 3f 88 da fc 3e f2 d7 6f 3f 78 93 19 40
       0.53891796 0.49385476 0.9368888 2.3996258
000350 78 bc 2d 40 d1 c0 83 bf 66 34 65 bf 91 b8 c4 3f
       2.7146282 -1.0293218 -0.8953308 1.5368825
000360 66 23 e9 bd 84 32 2f bf 70 26 94 3f 4b 8a 19 3f
       -0.11383705 -0.68436456 1.157423 0.59976643
000370 1d 9e 09 be 83 09 48 bf 5d d6 9f be 0a f4 0e 3f
       -0.13439222 -0.78139514 -0.31218234 0.55841124
000380 22 bc 78 bf 1c 3b 12 3f 4b ba f6 bd 15 36 11 3f
       -0.9716207 0.57121444 -0.12047251 0.5672315
000390 39 5b 85 3e af e7 0c 3f 67 cc 84 bf a0 37 e1 3d
       0.2604616 0.5504102 -1.0374879 0.10996938
0003a0 44 52 1f 40 d4 86 8f be b7 86 07 40 ce 38 23 40
       2.489396 -0.28032553 2.1175973 2.550342
0003b0 32 17 1e bf 65 f9 be bf 3c d6 17 40 28 00 f3 bd
       -0.61754143 -1.4919859 2.3724508 -0.11865264
0003c0 1e 9c 33 40 ee b5 d0 3e 53 01 12 bf 90 ac 85 be
       2.8064036 0.407638 -0.5703327 -0.26108217
0003d0 11 11 2e 40 a9 db bd 3e 1a 30 69 bf f8 57 6f bf
       2.7197917 0.3708165 -0.9108902 -0.93493605
0003e0 98 39 7e bf de 94 28 40 75 94 0a 3f 0e 6d 41 3d
       -0.9930663 2.6340861 0.5413278 0.047223143
0003f0 53 42 0d 3f 9c 24 d1 be 6a ba 9c 3f 3e a1 d2 bf
       0.5517933 -0.40848243 1.2244389 -1.6455457

linear3.bias f4 [4]
000000 fa 68 e8 40 bd 99 fb c0 6a 23 10 bf 57 8f 11 41
       7.2628145 -7.862517 -0.5630404 9.097495
